model/model.pth (torch, 16799 bytes, 4 tensors)

linear1.weight f4 [256, 11]
00000000: 0611 d13e bd50 653e 2f04 7dbf 287a aa3d
00000010: 3ada 02bf 186d 953e ed62 64be 4cd5 40be
00000020: 9599 043f 7530 98be 1fa1 753e 75a8 49bd
00000030: 119c 063f f789 253e 9a1d acbe 0e6c 913d
00000040: 2705 39be 553f 6f3d 12ea 2e3e 460c 2abe
00000050: 6239 0c3e c209 8abe 8142 713e 4987 c83e
00000060: 25a2 003f 3cf9 bc3e c647 0dbd 09c7 b4be
00000070: 9fd8 87be 1933 13be cf9e 9cbd e62b 48bb
00000080: e7bf b3be d136 923d c706 4fbd 7fd4 c8be
00000090: 1584 18be b207 21be fa8d 03be 8643 28be
000000a0: 6852 5a3d fc5d e43d 309e e0bd b9dc 383d
000000b0: 0fb9 123e 5a4a 66be a012 4fbf 6fa8 c1bd
000000c0: bc95 0cbe 7866 3a3e df5c 18be 9f43 a93e
000000d0: 6194 e03e 680b 0d3e 6587 c63e 2443 bd3d
000000e0: 8135 e73e a74f 9a3e 6900 51be 1fe1 12bd
000000f0: dbaa 02be b2e5 6e3b 5a70 083e 4412 093e
00000100: 6007 593e 637a 043e 662b 083f ed97 76be
00000110: 92ce c9be d87b 773c 9231 123e a8e5 bcbd
00000120: 3542 1c3d da01 0ebf 6ddd 6abe 208c db3d
00000130: 2002 4a3e b900 b4be 9dc9 d23e c809 123f
00000140: 8a4d 843d eabe 763d 51f1 b73d 3b2d ffbd
00000150: ed4d 793e 1104 a93e cbff 433e 61c5 7d3e
00000160: 85ec 0ebe 4173 743e 164a e4be ca47 0cbe
00000170: 9411 a8bd dbfd fd3d 3a05 233b 616c c1bd
00000180: 2d18 b93c 4518 abbd e814 7f3c 1160 cd3d
00000190: 8aab f8bd b71c 543e fe7e 403e 4399 cebe
000001a0: 5e38 c43e a171 92be e5db 1bbf e0b3 8cbe
000001b0: 0a89 a93e 01f2 c7be aae6 433c 745c 81be
000001c0: 3b83 febe 0fd4 0a3f 886a d0be ac5d 253d
000001d0: 1456 a1be cb03 963e 9ea2 0abf d024 03bf
000001e0: fff3 06be 12d6 f4bd b6ef 043e 268b 1cbf
000001f0: 263c b2bd 6bb4 8abe 0498 bdbe 8e9d e7bc
00000200: e5a0 a6bd f72f 943e bc14 d2bb 78dd 8c3e
00000210: 0499 a53e 538c e73d b59e 0a3f 6e7c 2d3e
00000220: 7f95 313b 0593 f93d 1487 123c 3b0c 143e
00000230: 6db2 db3e 2ded 0b3e f549 273c 37d2 6c3e
00000240: d801 69bd 51a8 993c 035a a93e 2055 613e
00000250: 1571 11bf dda9 a5be 7c72 f1be a41b 9ebe
00000260: 09ea f53e 051c 873e cd66 b23e a161 413e
00000270: 0046 293d 90f7 bebe 3cdf c23d f06e a9be
00000280: 2f3a 5a3e 8612 fc3e f095 ef3e ce6c 0e3f
00000290: 5856 13bd 6a64 e2bd f910 9cbe c5e2 d13d
000002a0: 7773 b0bd 950a 51be 3d53 d83c a90f cdbb
000002b0: 02c8 7a3d 4283 fbbd b402 d2bd 8945 3fbe
000002c0: 1ea8 1abd cf3b 2c3f c454 8cbe 67e3 65be
000002d0: 59ef ac3d 6cc9 a13e 4cab 463e e66e 60be
000002e0: 66da c7be 7d4c 673e 9288 ef3d 564e 1b3f
000002f0: 702c 26bf 9edf 9e3e b31d c0be dfd4 453e
00000300: 1d0a 16be e12f a43d fd04 eb3e 4eb5 3cbd
00000310: add9 0f3e 912f 833e f82f 303e 9606 783e
00000320: df08 eb3e e7f3 a6bd a7b5 d1be 805f e5be
00000330: a451 92be b27d 81bd ee56 df3d 9c53 f33c
00000340: 71cd 5ebd c1c8 433e 5510 aebd 28c0 153f
00000350: 68b3 66be 0a76 43be 417d 61be 9492 dcbd
00000360: cbc3 c63e 5048 983e 12f3 b53e d16b 773e
00000370: d2b0 f63e fd00 5c3e 6116 25be 78e0 b43d
00000380: 0ba8 49bd 2232 c4bd 3c0f 2c3e 3578 903c
00000390: e11c cb3e fff3 013f 4fb3 373e 61d2 88ba
000003a0: f396 f1be 0b47 f03a fe8f 2abe 68cc 3abd
000003b0: e0a1 96bc 7ae2 adbe 08f5 9b3d 2448 03be
000003c0: 4089 23be 45aa c8bd 5460 083c 6291 02be
000003d0: e3dc a63d 5a64 cc3e 2314 a13e adbe d3be
000003e0: 3a23 8fbe b3d7 08bf 19d4 18bf 4226 c83d
000003f0: e924 003e a7c1 3e3e 1036 653e 13d3 103f
0.408333 0.2239408 -0.9883451 0.08324081 -0.5111424 0.29184794 -0.22303362 -0.18831366
0.5179685 -0.2972447 0.23987244 -0.04923292 0.5258189 0.1616591 -0.33616334 0.07100688
-0.18068372 0.058410008 0.17081478 -0.16606244 0.13693765 -0.2696057 0.23560525 0.39165714
0.5024741 0.369089 -0.034492277 -0.35308102 -0.26532456 -0.14374961 -0.07647478 -0.0030543744
-0.35107347 0.07139362 -0.050543573 -0.39224622 -0.14894135 -0.15725592 -0.12847129 -0.16432008
0.053301245 0.111507386 -0.10967672 0.045132373 0.14328407 -0.224893 -0.80887794 -0.09455954
-0.13728994 0.18203151 -0.14879178 0.33059403 0.43863204 0.13773882 0.38775173 0.09241322
0.45158008 0.30138895 -0.20410313 -0.035859223 -0.12760489 0.0036452827 0.13324109 0.13385874
0.2119422 0.12937312 0.5319122 -0.24081393 -0.39415413 0.01510521 0.14276722 -0.09223491
0.038149077 -0.55471575 -0.2293603 0.10720086 0.19727373 -0.351568 0.41169444 0.57046175
0.06460102 0.060240664 0.08981574 -0.12459799 0.24346133 0.33010915 0.19140546 0.24782325
-0.13957413 0.23872091 -0.44587773 -0.1369926 -0.08206478 0.12401935 0.0024874941 -0.094445
0.022594536 -0.083542384 0.015568949 0.10028089 -0.121420935 0.20714079 0.18798444 -0.40351304
0.38324255 -0.28602317 -0.6088241 -0.27480984 0.33112365 -0.39051822 0.01195685 -0.2526585
-0.49709496 0.54229826 -0.40706277 0.040372536 -0.31510985 0.2929977 -0.54154384 -0.51228046
-0.13179015 -0.11954893 0.12982067 -0.61149824 -0.08702879 -0.27090773 -0.3703004 -0.02827337
-0.08136157 0.28942844 -0.006411163 0.27512717 0.32343304 0.113060616 0.5414842 0.16941997
0.0027097163 0.12186245 0.008943338 0.1445779 0.42909566 0.13664694 0.010210504 0.23127066
-0.056886524 0.018757017 0.33076486 0.22005129 -0.56813174 -0.32356158 -0.47157657 -0.30880463
0.48030117 0.26388565 0.34844056 0.18884899 0.041326523 -0.3729825 0.09515235 -0.3309245
0.21311258 0.49232882 0.4679408 0.5563477 -0.035971016 -0.11054309 -0.304817 0.10248331
-0.08615773 -0.20414193 0.026406879 -0.0062579704 0.0612259 -0.12280895 -0.10254422 -0.1867887
-0.037757985 0.6727876 -0.2740842 -0.22450028 0.084440894 0.31598985 0.19401282 -0.21917304
-0.39033812 0.22587772 0.116959706 0.60666406 -0.64911556 0.3102998 -0.3752266 0.19319485
-0.14652295 0.08016945 0.45902243 -0.046071343 0.1404788 0.25622228 0.17205799 0.24221262
0.45905206 -0.081519894 -0.40958902 -0.44799423 -0.28577912 -0.063228026 0.109052524 0.029702954
-0.054395143 0.1911955 -0.08499209 0.5849633 -0.22529376 -0.19087997 -0.22020437 -0.10770145
0.38821253 0.2974267 0.3553701 0.24162222 0.48181778 0.21484752 -0.16121818 0.088318765
-0.049232524 -0.095798746 0.16802686 0.017635444 0.3967047 0.50762933 0.17939495 -0.0010438674
-0.47185478 0.0018331719 -0.16656491 -0.045605093 -0.018387735 -0.3396185 0.076150954 -0.12820488
-0.15970325 -0.09798101 0.008323748 -0.12750772 0.081475995 0.39920312 0.31460676 -0.41356412
-0.27956563 -0.5345413 -0.59698635 0.09772922 0.1251408 0.1862856 0.22383904 0.56572074

linear1.bias f4 [256]
00000000: 2e1b 0ebd 8b59 88bc d434 c1be 6dc1 0bbe
00000010: d0ff 95be 3b2f 85be 3bbe dd3e a4bd 9fbe
00000020: 1b21 28be ba13 fbbd 6745 6b3d 170b a6be
00000030: 89bb cebe 76f9 343d 4404 8dbe 7a53 24be
00000040: eab1 31be ef77 afbe ade0 8fbd ca83 6dbe
00000050: f4c0 bcbe dcb9 1bbe daa7 6c3d b649 0dbe
00000060: 4e4f 843d 7249 a7bd 23ad d2bd 4e80 3abe
00000070: a71e 253c 3e96 5dbe 75ea 9d3d d160 4abe
00000080: 6350 ec3d 8180 103f 8f44 c8bd 8814 40be
00000090: 82c1 893e 6324 aebe e677 bb3e d024 f1be
000000a0: f184 433e 38ad 203e fb3f ccbd 3f8b 5ebe
000000b0: 0292 373d f901 dfbe 00f5 ea3e 4f27 bbbe
000000c0: 8fa6 f8be 8347 11be ffad 80be 0e5a 82bd
000000d0: 5217 afbd f518 aebc fadf 8b3d c85b cb3e
000000e0: a82b a1be 73bf 82bd 1d36 f03d f16d b2be
000000f0: 7a43 d5bd 942d 6dbe f1cb 5fbe 1090 123f
00000100: 08c7 42be 7e46 0a3d 0050 3abc 03ff 0fbc
00000110: 3110 11be ee97 39bd 7702 97be e599 7fbe
00000120: 4399 91be d4b3 5fbd 69e2 1b3e 2852 893a
00000130: e0e8 7dbe c32b 8dbc 828e 35bd aeb4 b3be
00000140: 5ebd 8ebe 2e17 083e 63e6 0dbe dd22 58be
00000150: 506d 5abe 78f9 bebd 6ef0 2b3e f43d 01be
00000160: 2bde 823e 3d99 05be 154e 36be fa1e 7dbd
00000170: f367 91be e651 6ebe edfc 57be fc40 71be
00000180: 8163 eabc 8154 23be dc0b 833c 8978 a5be
00000190: a6a0 b3be 0938 f2bc 98c1 adbd 3caf 0d3e
000001a0: 6aef 51be e14c dabd 4971 26bc bd03 1b3e
000001b0: f8ba 49bc 5b6c ab3e a0ae 29be c3ab 4cbe
000001c0: b248 063f 8866 48bc ce8e 04be afe6 a33e
000001d0: be2c bfbc 3a93 38be a7c9 ca3e 29fc 21bd
000001e0: 5718 973e fecc 89be a54b 9dbe 1cd6 73be
000001f0: 16b6 2bbe 896b 18bd 7279 9dbe b618 863e
00000200: cee7 b6be 5123 493e 9793 f63d da08 0ebe
00000210: 6965 98be 0184 abbe 5d28 38be f48d 42be
00000220: 7031 02be 004f 653e 710a bdbd c33a 8cb9
00000230: b79b cdbd 5798 debd c4e1 00be d517 bd3e
00000240: 222b ed3e a7a9 d3be e780 c2be 9453 373e
00000250: 9e98 91be a243 71be 2737 20be 9579 703d
00000260: 13c9 0cbe 6bb3 ed3c fbad 1bbe 356b 33be
00000270: 7fd7 18be 937a 2cbd ecc5 a9be 519f 99be
00000280: dc0b 3cbe a91c a8bd 69cf 2abe 0018 813e
00000290: cdf4 01be 0126 8abe 90e3 a7bd 0b73 88be
000002a0: 25e7 b6bd af99 1a3e a09d 433d 071d 15be
000002b0: ebba 67be 5014 803d 8ccb 4dbe dd41 1cbe
000002c0: 60d7 e1bd 1dee 47be 0e8b 67be d5e8 91be
000002d0: 71bf 8f3d f8c1 ab3d 94b0 8e3d 2dfb a43d
000002e0: e598 8fbe fd68 a5be 2c24 74bc de2f 9bbe
000002f0: 6905 06be 3be0 8bbe d037 d3bd 41c6 5cbe
00000300: 216a 9dbd ca1c bd3d 3b2f 40be 4db0 98bc
00000310: 80d1 e2bd 5600 83be e132 43bd 1dbf fb3c
00000320: 50ed 053f 316b 39be 4a42 27be 3836 acbe
00000330: 17dd f33d 27cf 13bf 46dd b8be ba73 afbe
00000340: c203 623e 86b7 07be 3ab6 41bd a590 3b3f
00000350: 5ac5 af3d 5681 02be ee62 93be 7527 57bd
00000360: 66fd 96be 3b29 5f3d f690 93be 9df2 ecbd
00000370: 2a8d b73e 9366 4a3e 1a89 80be cb62 e8be
00000380: e5b9 07be 9e17 6d3e 79d4 94be aaac 123c
00000390: c676 773c efb2 dd3d 9d05 d33d 1d85 d2be
000003a0: de0b f1be 575b cfbe 5811 97be 5863 543e
000003b0: 6dad cbbe b827 e13d 973b ab3b 428b c0bd
000003c0: cdff 2c3f 5a83 d43e 80f7 86be e39e a73d
000003d0: 0e1f c83e 2e27 9e3d 3c23 0b3c 91ad 0f3e
000003e0: 11ae 3fbe 5408 7c3e 5a92 093e 334f bbbe
000003f0: aa43 843d acda 21bd 005e f3be d7bf 2f3f
-0.03469389 -0.01664426 -0.37735617 -0.13648005 -0.29296732 -0.26012596 0.43309197 -0.31199372
-0.16418879 -0.12259622 0.057439234 -0.32430336 -0.40377453 0.044183217 -0.27542317 -0.16047469
-0.17353025 -0.3427119 -0.070252754 -0.23194805 -0.36865962 -0.15207618 0.057777263 -0.1379765
0.06460439 -0.081683055 -0.102869295 -0.18213007 0.010078109 -0.21639344 0.07710735 -0.19763495
0.1153877 0.5644608 -0.097787015 -0.18757832 0.26905447 -0.34012136 0.36614913 -0.47098398
0.19093682 0.15691078 -0.09973141 -0.21732806 0.04481698 -0.43556193 0.45890045 -0.36553428
-0.48564574 -0.14187436 -0.25132748 -0.06364833 -0.0854937 -0.021252135 0.068298295 0.3971846
-0.3147862 -0.06384172 0.11729071 -0.34849504 -0.10413261 -0.23161918 -0.21855141 0.5725107
-0.19021237 0.033758633 -0.011371613 -0.008788827 -0.14166333 -0.045310907 -0.29494068 -0.2496105
-0.28437242 -0.054614857 0.15223087 0.0010476755 -0.24795866 -0.017232781 -0.04432536 -0.35098785
-0.2787885 0.13290092 -0.13857417 -0.2110705 -0.21330762 -0.09324926 0.16790935 -0.1262129
0.25560126 -0.13046737 -0.17803223 -0.06179712 -0.2839962 -0.2327343 -0.21092577 -0.23559946
-0.0286119 -0.15950204 0.015996866 -0.32318524 -0.35083503 -0.029567735 -0.08484191 0.13836378
-0.20501485 -0.10659195 -0.010158845 0.15138145 -0.012312643 0.33481106 -0.1657052 -0.19987397
0.52454674 -0.012231477 -0.129451 0.32011935 -0.023336764 -0.18024912 0.39606974 -0.03954712
0.29510757 -0.2691421 -0.30721775 -0.23812145 -0.16768679 -0.03721193 -0.30756718 0.26190728
-0.35723728 0.19642378 0.12039869 -0.13870564 -0.2976487 -0.33499148 -0.17984147 -0.18999463
-0.12714171 0.22393417 -0.09230507 -0.00026746662 -0.10039466 -0.108689 -0.12586123 0.36932245
0.4632197 -0.41340372 -0.3798897 0.17902976 -0.2843675 -0.23560956 -0.15646039 0.0587097
-0.13748579 0.029016217 -0.15203087 -0.17521365 -0.14925955 -0.042109083 -0.33158815 -0.3000436
-0.18363899 -0.082085915 -0.16680683 0.25213623 -0.1269104 -0.2698212 -0.08197701 -0.2665027
-0.08930806 0.15097688 0.047757745 -0.14561854 -0.22629897 0.06253874 -0.20097178 -0.152595
-0.11027408 -0.19524427 -0.22611639 -0.2849795 0.070189364 0.08386606 0.06967273 0.080557205
-0.28046337 -0.32306662 -0.014901202 -0.30309957 -0.13088001 -0.27319512 -0.1031338 -0.21560003
-0.07686258 0.09234007 -0.18768017 -0.018638754 -0.11075115 -0.25586194 -0.047655944 0.030730778
0.52315235 -0.18107297 -0.16333881 -0.33635116 0.11907404 -0.57737964 -0.36106318 -0.3426798
0.22071746 -0.13253602 -0.047292925 0.73267585 0.08582564 -0.1274465 -0.28786415 -0.052527864
-0.29490203 0.05448268 -0.28821534 -0.11569712 0.35849887 0.19765691 -0.251046 -0.45387873
-0.13254507 0.2315354 -0.29068354 0.008952299 0.015104001 0.108251445 0.10303805 -0.41117182
-0.47079366 -0.40499374 -0.2950542 0.20741022 -0.3978075 0.10993904 0.0052256095 -0.09401561
0.6757782 0.41506463 -0.26360703 0.08184602 0.39086193 0.07722317 0.008492287 0.14031054
-0.18718745 0.24612552 0.13434735 -0.36583862 0.064582184 -0.039515182 -0.47532654 0.686521

linear2.weight f4 [3, 256]
00000000: 747a 81be 6d77 6bbc 5d23 1cbe c1a3 10bb
00000010: a5dd 3fbe 0e66 9bbc d297 0f3e 70ce 90bd
00000020: aef3 31bd 6bf8 b13e 6a3f 933e 9292 5fbd
00000030: 70d9 adbd 3274 f2be 3cf2 babe 0f0a 223d
00000040: b398 0d3e 23c4 3ebe 31e4 50bd 3473 ffbd
00000050: acdb a4be 997f 43bc 2c25 c8bd 0124 c9bd
00000060: 3929 b03d a458 96bc e147 0fbe 80c4 a8ba
00000070: b62b dabd 225f 2a3c fef1 e5bd 0477 42bd
00000080: f992 93be 995b 123f c2b0 c5b9 f520 99be
00000090: b591 a53e 730e 6ebe e0c5 a33e 3c73 24be
000000a0: 50cc 4d3e 63ff 3a3e 415e d1be bb6c 28bb
000000b0: cd2d c4be 150e 23bd fa42 f13d 1de4 f4bb
000000c0: 6c15 5bbd 9a06 cabd 53db 5dbe b836 303d
000000d0: 96d4 233d e37a 01bf 73b8 da3d a44b 663e
000000e0: 454e 303e 39b6 bbbe 908a 353e c8ac 53be
000000f0: e77c d1be b803 0bbe 266c 45bd a915 373e
00000100: e7fe 3cbe c18f a53d d067 8d3e 44e6 833b
00000110: daff 473d 22c9 7f3e 8f6a b8be 640e b6bd
00000120: 6ed7 12be c8d6 0c3c cb50 c53e 8114 af3e
00000130: 798e efbb 503c d9bd 5214 a23d 1175 8fbc
00000140: f021 99be 4362 d03d dabb 4d3d 06ff c03e
00000150: 942a 8abe 707b 8ebc a3d0 88be 99f3 d13c
00000160: 8b79 9a3e 8bfd 16ba 94d2 0ebf bdfe 263d
00000170: 8b01 3bbe 8029 cabe 9ad5 6f3a f13f aabe
00000180: 87ca 66bf c473 51bd 5704 a2be c8ec b43c
00000190: aee0 883d c5ec c03c fe0a bdbe 9b10 3d3f
000001a0: c052 d8be 1825 f1be 4ab8 fcbe efeb 803e
000001b0: 8ffb 113d 3c59 283e 9d1a 5a3c 1422 3fbe
000001c0: c7fa 143f 7b07 02bf b980 0abf 34c3 a03e
000001d0: f696 7f3e d583 d9bd baca 833e dbe0 263e
000001e0: 31ed 223e 4dae 64be c92d 23bd dff8 8f3d
000001f0: 8118 35be f30c 55bd 06f6 903c 1ef8 663e
00000200: cbf2 18be 14e1 153e e5bb 803e 9228 e73c
00000210: a0cf 5fbd 1d5f 8ebe 326d 83be e3f4 2bbe
00000220: b7dc 8e3e 2e18 943d b9a6 f2be 60c3 3cbe
00000230: d632 d3bb b4eb bc3b 7c95 973d f909 7f3e
00000240: 56fa ff3e 97c7 0cbe 3ceb 3bbe 3c8f a03c
00000250: b820 2a3b 7a7a 7ebe e288 bbbe 6da2 aa3d
00000260: a0ef f3bd a07c 653e 5fec c3be f7f0 c6be
00000270: 762a b1bd 0fa5 7ebd a255 39bc 3341 cbbc
00000280: 4283 0cbd 2d16 593e ba80 13bf 22ed f23d
00000290: 1645 e7bc dabe 373c 283c 82be dd8b 21bc
000002a0: bcc7 873e f2e9 233e 3a0c 1dbe deaa 2ebd
000002b0: 5e18 213c c924 333e 4b7a 8abd 0cb7 b0be
000002c0: 91b1 3abe e7c7 b9bd 4931 5fbc b568 c8be
000002d0: 8535 b33d a458 b33d a247 dfbe 9244 cd3e
000002e0: f7b1 0abe 5a9b d9bd 8c9a d3be 3d9b 15bc
000002f0: f6ce 323e 3cd1 c6be a48a 513c 0017 6bbe
00000300: dc7d 1ebb db93 c83e 5248 88bd 9f6f 653e
00000310: cb83 f03c fba9 87bd 3174 edbc fdbd 383e
00000320: 8e34 153f a26f 4bbe 8f98 c2bc 58e4 93bc
00000330: 6312 c43d 7fc0 5bbe 460e 2bbe e60c bcbb
00000340: 6ba3 d63d afab 09bc 5c2b 24bf 0309 f93e
00000350: ed25 ab3e 387c f6bb 49be 15be 955f 423e
00000360: 542a 14bf 570e fd3e 7276 323b 04bb 6ebe
00000370: a02b 0f3e a3b8 22be 65b5 2cbd 9dc3 5d3c
00000380: b04c 9dbd 4f37 a03e 5e50 873d 8c86 a2be
00000390: 5570 9d3e ef9a 943d 107b 7f3e 71e4 dcbd
000003a0: bf51 20be daff 8bbc f85f 5a3d 50a4 de3e
000003b0: ec16 933d 0599 bf3e 5ea7 953e 1467 543e
000003c0: 0c72 713e fe8b 033e 6e9a 183d f658 de3d
000003d0: 1e51 c43e 9624 f1bd c4c4 b6bd 73fc 0c3e
000003e0: 6c23 5f3d a6ec da3e d3c4 463e 1c05 d0bd
000003f0: 1b8b 963e 1466 cd3e a1c9 92bd 8e09 933e
-0.25288737 -0.014371735 -0.15247865 -0.0022070261 -0.18736894 -0.018969562 0.14022759 -0.07070625
-0.04344528 0.3475984 0.2875932 -0.05458314 -0.084887385 -0.47354275 -0.36512935 0.039560374
0.13827781 -0.18629508 -0.05099887 -0.12473145 -0.32198846 -0.011932277 -0.09772715 -0.0982132
0.086016126 -0.018352814 -0.13992263 -0.0012875944 -0.106528684 0.010398658 -0.11227797 -0.047476783
-0.2882307 0.57171017 -0.00037706463 -0.29907957 0.32337728 -0.232477 0.31986904 -0.16059583
0.2009747 0.18261485 -0.40892223 -0.0025699574 -0.38316193 -0.03980835 0.11780353 -0.0074734823
-0.053487226 -0.098645404 -0.21665697 0.043020934 0.03999766 -0.50578135 0.10679712 0.22489792
0.17217357 -0.36662462 0.17728639 -0.2067138 -0.40915605 -0.13575637 -0.04819884 0.17879356
-0.18456613 0.080840595 0.27618265 0.0040252525 0.048827983 0.2497907 -0.36018798 -0.088894635
-0.14339992 0.00859613 0.38538203 0.3419533 -0.0073106852 -0.10607207 0.07914032 -0.017511876
-0.29908705 0.10174992 0.050227977 0.37694567 -0.2698561 -0.017392844 -0.26721677 0.025628852
0.30170855 -0.0005759827 -0.55790067 0.04077028 -0.18262307 -0.39484787 0.00091489556 -0.33251908
-0.9015278 -0.051135793 -0.31643936 0.022085562 0.06683479 0.0235504 -0.3692245 0.7385346
-0.42250633 -0.47098613 -0.4935935 0.25180003 0.035640296 0.1644029 0.013312009 -0.18665344
0.58195156 -0.50792664 -0.54102665 0.31398928 0.24959931 -0.10620848 0.25740606 0.16296713
0.15910794 -0.22332115 -0.039838586 0.0702989 -0.17685129 -0.052014302 0.017695438 0.22555587
-0.14936368 0.14636642 0.25143352 0.028217588 -0.054641366 -0.2780694 -0.25669247 -0.16792636
0.27902767 0.072311744 -0.47392824 -0.18433905 -0.006445269 0.0057654027 0.07401559 0.24906148
0.4999568 -0.13748012 -0.18351454 0.01959955 0.0025959443 -0.24851409 -0.3662787 0.083317615
-0.11910939 0.22410822 -0.38266274 -0.38855717 -0.08650677 -0.06216913 -0.01131192 -0.024811363
-0.034304865 0.21199866 -0.57618296 0.11861636 -0.028231185 0.011214936 -0.2543652 -0.009860006
0.26519573 0.16007212 -0.15336695 -0.04264342 0.00983247 0.17494501 -0.06761607 -0.34514654
-0.18231799 -0.090713315 -0.01362259 -0.39142385 0.087504424 0.08757141 -0.4360934 0.40091377
-0.1354445 -0.10625334 -0.41328847 -0.00913125 0.17461762 -0.38831508 0.012789402 -0.22957993
-0.0024183905 0.39175305 -0.06654419 0.22405861 0.029359719 -0.06624218 -0.028986068 0.18041225
0.5828332 -0.19866803 -0.023754386 -0.018053219 0.095738195 -0.2146015 -0.16704664 -0.0057388423
0.10480388 -0.008402749 -0.6412866 0.48639688 0.33427373 -0.0075221322 -0.1462337 0.18981774
-0.5787709 0.49425003 0.0027231243 -0.23313528 0.13981485 -0.15890746 -0.04216518 0.013535407
-0.076806426 0.31292197 0.06607126 -0.31743276 0.30749765 0.07256114 0.24949288 -0.10785759
-0.15656184 -0.017089773 0.05331418 0.43484735 0.071821064 0.37421432 0.29229254 0.20742446
0.23578662 0.12846372 0.03725665 0.10856812 0.38343138 -0.11774556 -0.08924249 0.13768177
0.05447714 0.42758673 0.1941102 -0.101572245 0.29403004 0.40116942 -0.07167364 0.28718227

linear2.bias f4 [3]
00000000: b3d4 a03e d180 bd3d a876 863c
0.31412277 0.092530854 0.016414002
